models/cnn.pth (torch_old, 138142 bytes, 14 tensors)

weight f4 [16, 1, 5, 5]
-0.01629128 -0.004888266 -0.07044601 0.14434986 -0.04254885 -0.02299686 -0.16610435 0.0443664
0.059317447 0.08499412 -0.14000921 -0.19480926 0.24701892 0.11955562 -0.03934365 0.08621489
0.12639432 0.22339429 -0.27310804 -0.18437423 0.03563203 0.18136656 -0.20595787 -0.072531484
0.05157635 -0.122116126 -0.06653177 0.07094278 -0.015347431 0.03426897 0.018248264 -0.22263096
-0.24753866 -0.17041896 0.1472757 0.1989558 -0.19396424 -0.20294873 -0.17208438 0.124938294
-0.0141041735 0.21901168 -0.10605707 -0.15383327 0.06552683 0.045976788 0.17606117 0.037064396
0.06473838 -0.08693805 0.230795 -0.24344762 -0.2176695 0.08540493 -0.12928908 0.09284339
-0.020337716 -0.18813562 0.08515668 0.13073929 -0.13272433 0.23634815 0.036333706 -0.1164909
0.045872062 -0.09427754 0.1777842 0.089827985 0.023144042 0.15032606 -0.10892154 0.045405738
0.1868926 -0.19433409 -0.058360398 -0.17867413 -0.17987128 0.025317242 0.23912925 0.15938488
0.1655254 0.085439675 0.09923394 0.015139073 -0.21308136 0.067218855 -0.032058276 -0.15126428
-0.17733532 0.10494868 -0.14666247 -0.014944182 0.19111781 0.12676165 0.10070064 0.12491322
-0.05926826 -0.07785813 0.03998438 -0.13286938 -0.15575376 -0.25825727 -0.094297506 -0.21730867
-0.0576781 -0.028753284 -0.059104297 -0.18952346 0.081117116 0.112330355 0.14246699 0.22183786
0.1483389 0.1607326 0.022488933 0.13727249 -0.20562369 -0.1601388 0.08632703 -0.028299524
0.1973307 0.06973016 0.12523016 -0.13714583 0.06896746 0.10389631 0.13704117 -0.14349934
0.0254747 -0.07784886 -0.10482629 0.07359386 0.09069322 0.033389833 -0.030814623 -0.27794948
0.13751264 -0.08712936 0.16422132 0.17567196 -0.1665924 0.12524338 0.080445066 0.015061088
-0.08705538 -0.1924914 -0.15068382 0.01338035 0.09556836 0.19395481 0.14339262 -0.27225858
0.2096188 0.12385342 -0.14759089 0.17799038 -0.2770074 0.06696766 0.020597126 -0.03806282
0.096946105 -0.08831787 -0.05047116 -0.12948509 0.12950204 0.21115622 -0.1479928 -0.14652014
0.083121575 0.11984765 0.13525067 -0.15768941 -0.051729318 0.03449834 -0.03031236 -0.28096882
-0.1839157 0.016597172 0.060469843 -0.043753553 -0.20416616 0.21142828 0.020495962 0.055609938
0.23448229 0.06495671 0.052675303 -0.04937348 0.015102996 0.033097394 0.038806967 0.13220514
0.04940874 0.0003883373 -0.12945472 0.027089892 -0.07433476 -0.041692484 -0.16812019 -0.25973204
-0.2061153 -0.11178859 -0.100840114 0.19430801 -0.13723952 -0.06888711 -0.011267185 0.043896735
-0.26405448 0.19108011 0.17624944 0.048760258 -0.13426827 0.11249103 0.13474964 -0.1842218
-0.045133196 0.11088754 -0.089654416 -0.108455986 0.09417861 0.15851672 -0.14637916 -0.04565802
0.16719182 0.18406768 0.13447262 0.027839592 -0.09246567 -0.018611412 -0.10993494 0.16412745
0.12772681 0.13018003 0.115864195 -0.14933771 -0.1177465 0.04648719 -0.060960323 0.018952241
-0.14095338 -0.15410039 -0.16244398 0.10013546 -0.095618494 0.21974568 -0.20672649 0.16167468
-0.13878806 -0.10370257 0.1380378 0.28272727 -0.030015202 -0.21526659 -0.13155553 -0.053244274
00000000: 4a75 85bc bf2d a0bb ff45 90bd 73d0 133e
00000010: b447 2ebd e963 bcbc 4217 2abe 8bb9 353d
00000020: daf6 723d 6611 ae3d 935e 0fbe 147c 47be
00000030: 87f2 7c3e 94d9 f43d cf26 21bd 6f91 b03d
00000040: 836d 013e 79c1 643e d1d4 8bbe 99cc 3cbe
00000050: e4f2 113d 28b8 393e 9fe6 52be 638b 94bd
00000060: b941 533d 0518 fabd cf41 88bd 734a 913d
00000070: cb73 7bbc 9f5d 0c3d 627d 953c 5ff9 63be
00000080: c67a 7dbe 4f82 2ebe 71cf 163e 12bb 4b3e
00000090: 909e 46be cbd1 4fbe e336 30be a6df ff3d
000000a0: 3115 67bc 9944 603e 7334 d9bd 7886 1dbe
000000b0: ee32 863d 2852 3c3d 6149 343e d6d0 173d
000000c0: 8e95 843d 940c b2bd 8655 6c3e 554a 79be
000000d0: c1e4 5ebe c8e8 ae3d 5b64 04be ad24 be3d
000000e0: 489b a6bc a0a6 40be a066 ae3d 85e0 053e
000000f0: e3e8 07be 4005 723e a7d2 143d c892 eebd
00000100: 58e4 3b3d 9514 c1bd 100d 363e bcf7 b73d
00000110: 9398 bd3c 13ef 193e 4212 dfbd 5efb 393d
00000120: c660 3f3e 84ff 46be 500b 6fbd 5af6 36be
00000130: 2d30 38be 1b66 cf3c 4cde 743e ca35 233e
00000140: 7e7f 293e fffa ae3d 2a3b cb3d e009 783c
00000150: 0032 5abe 0aaa 893d 8a4f 03bd 06e5 1abe
00000160: 6497 35be 55ef d63d b02e 16be 71d8 74bc
00000170: 63b4 433e cecd 013e 233c ce3d 81d2 ff3d
00000180: 46c3 72bd 1574 9fbd a9c6 233d e90e 08be
00000190: ea7d 1fbe 4c3a 84be 0d1f c1bd 2a86 5ebe
000001a0: df3f 6cbd 028c ebbc 5917 72bd 7012 42be
000001b0: bb20 a63d 750d e63d dee2 113e 7729 633e
000001c0: 27e6 173e 1697 243e b63a b83c 2991 0c3e
000001d0: 048f 52be 6dfb 23be 3acc b03d 67d4 e7bc
000001e0: 0f11 4a3e b0ce 8e3d 563c 003e f56f 0cbe
000001f0: d03e 8d3d 97c7 d43d 8554 0c3e 7ef1 12be
00000200: 51b0 d03c 396f 9fbd 2aaf d6bd 61b8 963d
00000210: 5ebd b93d c7c3 083d f36e fcbc 654f 8ebe
00000220: 1dd0 0c3e e170 b2bd a229 283e 5ae3 333e
00000230: 3397 2abe cd3f 003e 62c0 a43d c8c2 763c
00000240: 174a b2bd 771c 45be dc4c 1abe 4139 5b3c
00000250: 58b9 c33d 179c 463e 84d5 123e 7a65 8bbe
00000260: 50a6 563e dda6 fd3d 1122 17be 1c43 363e
00000270: ead3 8dbe 5726 893d 4ebb a83c c2e7 1bbd
00000280: ae8b c63d 00e0 b4bd d9ba 4ebd bd97 04be
00000290: 2f9c 043e 5639 583e 6d8b 17be 6009 16be
000002a0: a53b aa3d af72 f53d 277f 0a3e 5579 21be
000002b0: 1fe2 53bd 224e 0d3d a051 f8bc 25db 8fbe
000002c0: 6654 3cbe cbf6 873c 3aaf 773d ed36 33bd
000002d0: ef10 51be a880 583e 26e7 a73c 3fc7 633d
000002e0: 201c 703e 0608 853d 0fc2 573d d93b 4abd
000002f0: 8e72 773c 2291 073d 0ef4 1e3d c960 073e
00000300: d260 4a3d c099 cb39 c78f 04be 9feb dd3c
00000310: d33c 98bd bdc5 2abd b327 2cbe 99fb 84be
00000320: e40f 53be 6bf1 e4bd 4385 cebd aef8 463e
00000330: 8488 0cbe af14 8dbd 009a 38bc 10cd 333d
00000340: 2632 87be 81aa 433e bc7a 343e d6b8 473d
00000350: 9f7d 09be b261 e63d cffb 093e a4a4 3cbe
00000360: 96dd 38bd 0219 e33d bc9c b7bd 2c1e debd
00000370: b7e0 c03d 3552 223e 6be4 15be e703 3bbd
00000380: 5534 2b3e 3d7c 3c3e 31b3 093e db0f e43c
00000390: a45e bdbd f676 98bc 9225 e1bd 0711 283e
000003a0: d1ca 023e ea4d 053e 354a ed3d fceb 18be
000003b0: 1425 f1bd 5a69 3e3d 88b1 79bd bb41 9b3c
000003c0: 1556 10be 7ecc 1dbe b757 26be d213 cd3d
000003d0: a1d3 c3bd 0305 613e 1cb0 53be 0c8e 253e
000003e0: 751e 0ebe 0362 d4bd c859 0d3e a1c1 903e
000003f0: 71e2 f5bc d86e 5cbe 7eb6 06be ab16 5abd

bias f4 [16]
0.016236706 -0.17600782 -0.13384005 0.11077242 0.12669063 -0.10148544 0.24845901 0.043340117
0.08541636 0.035995003 -0.11984312 -0.1677171 0.045971308 -0.1771933 -0.15838617 0.11022138
00000000: d702 853c 653b 34be 5e0d 09be a7dc e23d
00000010: 30bb 013e 99d7 cfbd 0a6c 7e3e 6885 313d
00000020: c6ee ae3d 7f6f 133d 4f70 f5bd 08be 2bbe
00000030: 694c 3c3d 2972 35be fc2f 22be bfbb e13d

weight f4 [16]
0.51455426 0.8508245 0.37465772 0.2619354 0.41120797 0.33218765 0.40511587 0.33941984
0.47777236 0.5798321 0.34905824 0.18579102 0.8459119 0.68432516 0.517514 0.28559852
00000000: d4b9 033f a2cf 593f 23d3 bf3e 661c 863e
00000010: da89 d23e 8014 aa3e 596b cf3e 70c8 ad3e
00000020: 949e f43e e06f 143f c3b7 b23e 0040 3e3e
00000030: af8d 583f ef2f 2f3f cc7b 043f f839 923e

bias f4 [16]
0.020481884 -0.40352443 -0.13249797 -0.16739416 -0.11312816 -0.114862606 -0.01680796 -0.11322544
-0.21250442 -0.13812585 -0.101638556 -0.14643018 -0.12629502 -0.29550216 -0.29067782 -0.13909681
00000000: a0c9 a73c c19a cebe 8cad 07be 6069 2bbe
00000010: bdaf e7bd 163d ebbd d9b0 89bc bde2 e7bd
00000020: c29a 59be dd70 0dbe e027 d0bd cbf1 15be
00000030: 7b53 01be 0f4c 97be b9d3 94be 656f 0ebe

running_mean f4 [16]
-7.571891e-05 -0.48607263 -0.06742826 0.2132844 0.12771091 -0.019576298 0.24875888 -0.15002283
-0.042981446 -0.054808885 -0.18789944 0.1455896 -0.21642084 -0.9974144 -0.045269117 -0.3432461
00000000: 48cb 9eb8 83de f8be d417 8abd 3a67 5a3e
00000010: a6c6 023e 795e a0bc a6ba 7e3e 969f 19be
00000020: 500d 30bd 487f 60bd b668 40be 7115 153e
00000030: 6d9d 5dbe 8d56 7fbf 1c6c 39bd f4bd afbe

running_var f4 [16]
0.09115897 0.67194086 0.120232165 0.104579546 0.29272282 0.2929923 0.20035522 0.2202478
0.17061369 0.1976142 0.11930488 0.49469304 0.30762616 2.9291062 0.080088414 0.96968263
00000000: 8eb1 ba3d 5104 2c3f 483c f63d cd2d d63d
00000010: c4df 953e 1603 963e eb29 4d3e a488 613e
00000020: 5bb5 2e3e 605b 4a3e 1e56 f43d 6848 fd3e
00000030: 2d81 9d3e 7a76 3b40 6505 a43d 1f3d 783f

weight f4 [32, 16, 5, 5]
0.0047966186 0.001937115 0.07830673 0.102485776 -0.06465893 0.053564467 0.054578282 0.14618587
0.050089 0.05917931 -0.13521521 -0.05314436 0.09062884 0.04378886 -0.020558465 0.08383232
-0.12153651 -0.07331432 -0.054654352 0.020943953 -0.012198332 -0.060439844 0.07687705 -0.17346114
0.03747605 -0.12081699 -0.036033653 -0.08635891 -0.062203713 -0.018174218 -0.029798316 -0.05260429
-0.066126764 0.057903808 -0.063643605 -0.08257194 -0.068803616 -0.06902265 -0.03325747 -0.0667092
-0.041515023 0.046050735 0.05542945 -0.045099035 -0.020872986 -0.04332149 0.01958023 -0.100631714
-0.0003210809 -0.056212228 0.025448417 0.016091628 0.055011913 -0.06372749 -0.07615483 -0.13681537
-0.027835106 0.007735431 0.02191537 0.048267473 0.010098087 0.0457732 0.07228923 -4.5928173e-06
0.065561794 -0.118980326 -0.107289016 -0.030434834 0.02699287 0.04529073 -0.15486503 -0.085485235
-0.04894569 -0.03193882 0.11161144 -0.018675162 0.0066290773 -0.12488669 0.026319357 0.101068236
0.040354628 0.09247426 0.016982507 0.10413157 -0.02792153 0.0075797588 0.10690738 -0.014903222
0.064781174 0.040185027 0.016303325 -0.00447777 0.017739384 0.06864926 0.011999101 -0.03439016
-0.059933707 -0.06396537 0.029719776 -0.02276611 0.026477817 -0.04861395 0.003982729 0.07708728
0.05409888 -0.046659186 -0.023306504 0.013654736 -0.004236043 0.06047804 0.07743518 0.002809972
0.012926228 0.019871391 0.10795821 -0.029454287 0.06581567 0.08865743 -0.054498684 -0.034387913
-0.06630985 -0.06401186 -0.008003693 0.067039065 0.021530895 0.0071107005 -0.006213409 -0.004309474
-0.13154326 -0.06935462 0.04587538 0.038401674 -0.053139552 -0.0570471 -0.08903417 -0.031813025
-0.07691593 0.056929458 -0.048445538 -0.029084506 -0.2102522 -0.07181747 -0.0041818917 0.027672226
-0.02834696 -0.19856282 -0.0061308416 0.035415165 -0.02358341 0.035819568 -0.045295447 -0.14425898
-0.0761928 0.0693842 0.04556158 -0.06457757 -0.0525239 0.06549554 -0.0020497246 -0.08248097
-0.15527456 -0.026215056 0.052064635 0.0058059474 0.03425509 0.02406473 0.035320662 0.06949248
0.020544233 0.046325237 0.15321447 0.1123985 0.032713275 -0.07220019 -0.1351046 0.095135614
-0.1128376 0.017199364 0.13469614 0.097485475 -0.018340249 -0.10087832 -0.098139204 0.033418145
-0.033474408 0.10054137 0.09550195 -0.1106751 0.09575162 -0.0004452676 0.084221825 -0.033040695
0.04163601 0.07917948 -0.049039204 0.08342025 0.08322467 0.06996863 -0.023277327 -0.041631326
-0.048888404 -0.11000606 0.0014615732 -0.07798754 -0.029841596 -0.039255377 -0.025534028 0.0832568
0.076390706 -0.14886913 0.07141048 0.05096153 0.091304824 0.041331537 0.025580496 0.020745894
0.070847 0.10282966 0.115305744 -0.04296825 -0.020742219 0.054531954 -0.027802445 0.06715716
-0.004016406 -0.019612152 -0.02599223 0.0009206271 0.0004369512 0.12956618 0.053615015 -0.01420281
0.01748199 -0.08975446 0.06563967 0.012213276 0.035401903 -0.01002133 -0.020249406 -0.015936906
0.054067936 0.036770932 0.04207647 -0.085735 -0.02922222 0.08033601 0.028667761 0.0060242917
-0.08214609 -0.024879983 -0.008861315 -0.09451773 -0.014975275 -0.06257674 0.06130038 -0.034184463
00000000: f42c 9d3b cbe6 fd3a 475f a03d 10e4 d13d
00000010: e76b 84bd 6a66 5b3d 7a8d 5f3d c0b1 153e
00000020: 202a 4d3d 0166 723d db75 0abe e7ad 59bd
00000030: 9d9b b93d f35b 333d 3a6a a8bc 48b0 ab3d
00000040: 22e8 f8bd d125 96bd 3edd 5fbd a792 ab3c
00000050: 83db 47bc c58f 77bd b771 9d3d cc9f 31be
00000060: 7d80 193d e66e f7bd 0698 13bd f1dc b0bd
00000070: 52c9 7ebd 19e2 94bc 991b f4bc 9977 57bd
00000080: 786d 87bd 8b2c 6d3d 9457 82bd 7a1b a9bd
00000090: e9e8 8cbd bf5b 8dbd fc38 08bd d59e 88bd
000000a0: a80b 2abd b29f 3c3d fe09 633d c4b9 38bd
000000b0: d3fd aabc e071 31bd b866 a03c 0018 cebd
000000c0: c056 a8b9 cb3e 66bd 3379 d03c 97d2 833c
000000d0: 2c54 613d 8f83 82bd 10f7 9bbd 5419 0cbe
000000e0: 7306 e4bc 8079 fd3b dd87 b33c 1db4 453d
000000f0: 7272 253c ae7c 3b3d 600c 943d 001c 9ab6
00000100: 4345 863d f5ab f3bd 58ba dbbd 7952 f9bc
00000110: 2720 dd3c c682 393d f094 1ebe e212 afbd
00000120: 477b 48bd 48d2 02bd 8a94 e43d a7fc 98bc
00000130: bb38 d93b 98c4 ffbd b19b d73c ddfc ce3d
00000140: e54a 253d 2563 bd3d e61e 8b3c ef42 d53d
00000150: b1bb e4bc a05f f83b 42f2 da3d a52c 74bc
00000160: feab 843d 0e99 243d 8d8e 853c 42ba 92bb
00000170: 2f52 913c fc97 8c3d e197 443c b2dc 0cbd
00000180: 0c7d 75bd 4700 83bd e376 f33c fe7f babc
00000190: 02e8 d83c 6c1f 47bd 8d81 823b f0df 9d3d
000001a0: ca96 5d3d b41d 3fbd 48ed bebc 1db8 5f3c
000001b0: 81ce 8abb d2b7 773d 5696 9e3d 8227 383b
000001c0: 88c8 533c 54c9 a23c 3219 dd3d 1e4a f1bc
000001d0: 5eca 863d 0792 b53d 033a 5fbd 57da 0cbd
000001e0: 75cd 87bd a618 83bd ec21 03bc c74b 893d
000001f0: 8f61 b03c e100 e93b da99 cbbb 7d36 8dbb
00000200: 47b3 06be cc09 8ebd d3e7 3b3d 134b 1d3d
00000210: dca8 59bd 38aa 69bd 8c57 b6bd 604e 02bd
00000220: 1986 9dbd dd2e 693d d46e 46bd a142 eebc
00000230: 5a4c 57be 0a15 93bd 4008 89bb ddb0 e23c
00000240: e237 e8bc 0d54 4bbe 3ae5 c8bb 7e0f 113d
00000250: ff31 c1bc 8ab7 123d b887 39bd a0b8 13be
00000260: f90a 9cbd 4e19 8e3d c89e 3a3d 3f41 84bd
00000270: 4d23 57bd 8722 863d ac54 06bb c8eb a8bd
00000280: 4b00 1fbe f5c0 d6bc ba41 553d d13f be3b
00000290: 114f 0c3d 6623 c53c 66ac 103d 1352 8e3d
000002a0: 614c a83c 88bf 3d3d 41e4 1c3e 2f31 e63d
000002b0: 5bfe 053d b1dd 93bd dc58 0abe 76d6 c23d
000002c0: 6617 e7bd aee5 8c3c c9ed 093e 77a6 c73d
000002d0: 4a3e 96bc 4b99 cebd 35fd c8bd 77e1 083d
000002e0: 761c 09bd a2e8 cd3d 8796 c33d a0a9 e2bd
000002f0: 6d19 c43d ce72 e9b9 7e7c ac3d ae55 07bd
00000300: 858a 2a3d da28 a23d 55dd 48bd 3cd8 aa3d
00000310: b271 aa3d b74b 8f3d 18b0 bebc 9c85 2abd
00000320: 353f 48bd db4a e1bd 4292 bf3a eeb7 9fbd
00000330: 5d76 f4bc 3fca 20bd bd2c d1bc 8b82 aa3d
00000340: bb72 9c3d 2671 18be a83f 923d 0abd 503d
00000350: 06fe ba3d 424b 293d 308e d13c 4bf3 a93c
00000360: 3b18 913d 5b98 d23d 6b25 ec3d 7aff 2fbd
00000370: 96eb a9bc e65c 5f3d f4c1 e3bc b189 893d
00000380: 0e9c 83bb aaa9 a0bc a8ed d4bc 3d56 713a
00000390: 9916 e539 ffac 043e 6b9b 5b3d e7b2 68bc
000003a0: 6436 8f3c 30d1 b7bd 176e 863d 311a 483c
000003b0: 9601 113d 8130 24bc 15e2 a5bc 1d8e 82bc
000003c0: 5776 5d3d 1e9d 163d 6058 2c3d d595 afbd
000003d0: 7063 efbc 3587 a43d a7d8 ea3c 6c67 c53b
000003e0: 363c a8bd 1bd1 cbbc 0d2f 11bc 8392 c1bd
000003f0: db5a 75bc 3c28 80bd 1b16 7b3d 0205 0cbd

bias f4 [32]
-0.030875703 -0.059669293 -0.026088906 0.04493402 -0.043427397 0.043345354 0.0054329736 -0.019463891
0.03655632 -0.040542714 0.073079936 0.029576452 0.016803958 0.059282806 -0.0069896397 -0.015201247
0.058056448 -0.023751367 -0.032250717 -0.005643545 -0.102727756 -0.027654067 0.08240301 -0.02524868
-0.044425752 0.020558093 0.0017200619 -0.049832877 0.07101299 -0.018394805 -0.07898688 0.0418321
00000000: 0bef fcbc ca67 74bd 67b8 d5bc bc0c 383d
00000010: ede0 31bd e68a 313d 1607 b23b bd72 9fbc
00000020: 14bc 153d 1e10 26bd efaa 953d 514a f23c
00000030: 74a8 893c 87d2 723d 5909 e5bb a70e 79bc
00000040: 99cc 6d3d 3a92 c2bc 5419 04bd 7ded b8bb
00000050: ee62 d2bd c88a e2bc e9c2 a83d 52d6 cebc
00000060: c7f7 35bd 7269 a83c b373 e13a 8f1d 4cbd
00000070: 426f 913d b4b0 96bc e0c3 a1bd 2358 2b3d

weight f4 [32]
0.7551287 0.74139696 0.6798838 0.46918058 0.7216186 0.79652756 0.5146605 0.5769807
1.0875454 0.78080666 0.96185184 0.4282567 0.63119817 0.46295244 0.65195805 0.7170079
0.8063772 0.61600596 1.0370857 0.69152176 0.691536 0.36232185 0.60008055 0.46876794
0.4493875 0.75278866 0.57753646 0.7284094 1.0103709 0.9448855 0.5917091 0.4161704
00000000: 1d50 413f 31cc 3d3f dd0c 2e3f 7038 f03e
00000010: ffbb 383f 3be9 4b3f cac0 033f 02b5 133f
00000020: b034 8b3f f2e2 473f ec3b 763f 7644 db3e
00000030: 3496 213f 1a08 ed3e b9e6 263f d48d 373f
00000040: bc6e 4e3f 91b2 1d3f 39bf 843f 9207 313f
00000050: 8108 313f 4082 b93e e19e 193f 5a02 f03e
00000060: 1e16 e63e c2b6 403f 6ed9 133f 0a79 3a3f
00000070: d553 813f 04e4 713f 3f7a 173f 4914 d53e

bias f4 [32]
-0.19053835 -0.3185738 -0.1810989 -0.16547662 -0.20796551 -0.22308598 -0.21159834 -0.20368224
-0.2991857 -0.15135384 -0.24130295 -0.17855799 -0.24632308 -0.20768763 -0.18613492 -0.09130345
-0.2241293 -0.22438826 -0.2820818 -0.23452464 -0.2994513 -0.09661631 -0.1732488 -0.12648542
-0.19022188 -0.26355857 -0.1788426 -0.24385601 -0.27221864 -0.22855869 -0.11725864 -0.16889429
00000000: 7c1c 43be 1b1c a3be fd71 39be b472 29be
00000010: e9f4 54be a770 64be 3cad 58be 1492 50be
00000020: de2e 99be 80fc 1abe 1f18 77be e8d7 36be
00000030: 1e3c 7cbe 11ac 54be 279a 3ebe 4efd babd
00000040: 2782 65be 09c6 65be 076d 90be 3a27 70be
00000050: ae51 99be c6de c5bd 2268 31be 6585 01be
00000060: 86c9 42be 26f1 86be 8422 37be 64b5 79be
00000070: 3e60 8bbe 4a0b 6abe 4c25 f0bd a0f2 2cbe

running_mean f4 [32]
-0.57612 -0.74663866 -0.10036035 0.27736855 -0.22720233 0.092624925 -0.09755532 -0.42228836
-0.36984673 -0.26659703 -0.5608016 -0.08746297 -0.17973438 -0.43856782 -0.11705626 0.0730873
0.037927933 0.031839374 -0.46056503 0.06784452 -0.5389525 -0.35194626 -0.4966966 -0.12179218
-0.45341682 -0.49442208 0.470433 -0.39234135 -0.43521976 -0.8631388 -0.12868859 -0.3753185
00000000: 9a7c 13bf b623 3fbf ba89 cdbd 4003 8e3e
00000010: baa7 68be 23b2 bd3d 15cb c7bd 2e36 d8be
00000020: 8d5c bdbe 687f 88be b290 0fbf c91f b3bd
00000030: 4a0c 38be f68b e0be 31bb efbd cbae 953d
00000040: 525a 1b3d 016a 023d 2ecf ebbe 11f2 8a3d
00000050: cbf8 09bf 4d32 b4be 044f febe 2e6e f9bd
00000060: 4026 e8be e424 fdbe 98dc f03e f7e0 c8be
00000070: 20d5 debe aaf6 5cbf f1c6 03be bf29 c0be

running_var f4 [32]
0.27903235 0.29536974 0.2843408 0.31027445 0.2250987 0.29657197 0.27927947 0.21838799
0.26801738 0.48409516 0.26335767 0.2914426 0.27531955 0.33900493 0.1837169 0.20420446
0.26654366 0.29301438 0.2232728 0.24439725 0.25224793 0.2217923 0.26022974 0.34806287
0.28909335 0.22701867 0.27035895 0.21020052 0.30690283 0.35410693 0.23699498 0.30107388
00000000: 54dd 8e3e b43a 973e 1e95 913e 4bdc 9e3e
00000010: 4680 663e 48d8 973e b8fd 8e3e 1aa1 5f3e
00000020: 9339 893e 52db f73e d1d6 863e f737 953e
00000030: aff6 8c3e 0e92 ad3e 4820 3c3e f91a 513e
00000040: 6978 883e fb05 963e a0a1 643e 4643 7a3e
00000050: a426 813e 851d 633e d53c 853e 4c35 b23e
00000060: 0b04 943e 9577 683e 7d6c 8a3e ce3e 573e
00000070: 5e22 9d3e 814d b53e d0ae 723e 5b26 9a3e

weight f4 [10, 1568]
-0.015821565 -0.05720289 -0.04372384 -0.01886711 -0.0050594616 0.07524253 -0.06501522 0.014018765
-0.011857786 0.047865298 -0.044628624 -0.060042966 -0.050709184 0.07627214 -0.0042049615 -0.0004080554
-0.0134095065 -0.016455982 0.04714503 -0.006806999 0.107551396 0.01579892 0.022014258 0.014212383
0.03146118 0.03753599 -0.040267613 -0.015054797 -0.058784947 -0.04777189 0.015162664 -0.008119451
-0.048765916 -0.07075029 -0.14153709 -0.039437085 -0.059048273 -0.055103336 0.0675833 -0.06626327
-0.050252292 -0.14611694 -0.031786993 -0.0519809 0.04473879 0.03241518 0.013364157 -0.027258044
-0.068490386 0.044996127 0.012308974 -0.011360122 0.036026485 0.006685782 0.11930007 -0.07032437
0.03237974 0.005725837 -0.13714066 -0.055186506 0.022729086 0.060654636 -0.0010218467 -0.004577582
0.046106506 0.015487765 -0.035837397 0.004795192 0.060643844 -0.018931752 -0.1198999 0.09469382
-0.05788521 -0.025284944 0.008906052 -0.044482943 -0.01075046 -0.08602461 0.094476044 -0.08450027
0.048625477 0.0421289 0.03728531 -0.038252678 -0.07718008 0.014238408 -0.13358404 0.090635665
0.048888054 -0.13455625 -0.042642746 -0.00014412915 -0.004897242 -0.07626593 0.04308607 -0.02187095
-0.05055484 -0.084704295 -0.058419395 -0.046662446 0.04906005 -0.0010583929 -0.00044218067 0.01338849
0.022595024 -0.038679115 -0.056720503 0.04818705 0.05774514 0.022890013 -0.041882474 0.03857593
0.075330764 0.070903346 0.11503839 0.07507459 0.07522388 0.036494892 0.12946899 0.11889723
-0.13014117 -0.0067902305 0.024788033 0.0072290865 -0.021444924 -0.07934084 0.010512787 -0.11660562
0.0039091893 -0.03852222 0.0020111538 -0.009365112 -0.08197885 0.05774979 -0.051352866 -0.009737568
-0.069271386 0.03772909 -0.051038366 0.0058152443 0.0017720305 -0.03550967 -0.042996895 -0.06267338
-0.038061123 -0.027737 -0.070713885 0.16895957 -0.048458513 -0.009737472 0.084850006 -0.002710314
0.06773726 0.037447203 -0.11439212 0.035419412 0.044158075 -0.04100406 -0.020396043 -0.057450294
0.008601817 -0.032297347 0.015239856 0.06617106 0.052478872 -0.008649968 0.010236869 -0.16814834
-0.0354706 -0.10006527 -0.10749093 0.009895086 0.05951925 0.0035743103 -0.09030345 -0.016593732
0.07427552 -0.10327829 0.022799712 0.054071594 0.050323166 -0.009304661 0.002748184 -0.008574846
-0.10887455 -0.008975349 -0.010822477 0.07746491 0.03542169 0.02817498 -0.028433748 0.040731147
-0.024442697 0.043515544 -0.037829574 0.014168637 -0.043119166 -0.06512764 -0.03416222 -0.03981151
0.012746891 0.038307115 0.13438416 0.0026428627 0.03941103 -0.08857701 -0.0005435502 -0.030411012
-0.0019245705 0.019777032 0.051343065 0.0041108155 0.06110896 -0.010587741 0.12581179 -0.03061456
-0.010798113 -0.029680286 0.028565435 -0.06664488 -0.026077872 -0.010221066 0.040361747 -0.039447654
-0.0478092 -0.0053274557 -7.723429e-06 -0.051230017 -0.08060556 -0.05075601 -0.011288639 -0.040958796
0.02606464 -0.04198726 0.048733864 -0.0208603 -0.20702544 0.027171671 -0.097418614 0.0325677
-0.06581335 -0.033465188 -0.042345908 -0.0749208 -0.023850428 0.046254165 -0.0060916776 0.096554086
-0.0123716295 0.038759936 -0.042888988 -0.036238078 -0.0262204 -0.043622624 -0.004590718 -0.053569738
00000000: 3a9c 81bc 944d 6abd c517 33bd 338f 9abc
00000010: d7c9 a5bb c118 9a3d b326 85bd f6ae 653c
00000020: 2947 42bc 670e 443d 81cc 36bd 9def 75bd
00000030: 6fb4 4fbd 9134 9c3d c6c9 89bb 45f0 d5b9
00000040: 8cb3 5bbc b2ce 86bc 261b 413d 3f0d dfbb
00000050: e843 dc3d bd6c 813c 3f57 b43c 0edb 683c
00000060: 70dd 003d 57bf 193d a7ef 24bd 65a8 76bc
00000070: 7cc8 70bd 75ac 43bd d36c 783c 7207 05bc
00000080: c5be 47bd 87e5 90bd 19ef 10be c888 21bd
00000090: 9adc 71bd 09b4 61bd 1d69 8a3d 0ab5 87bd
000000a0: 59d5 4dbd ae9f 15be 1433 02bd ede9 54bd
000000b0: 0540 373d c8c5 043d 56f5 5a3c 434c dfbc
000000c0: b044 8cbd dc4d 383d 94ab 493c ce1f 3abc
000000d0: 8290 133d 6814 db3b 9853 f43d 3906 90bd
000000e0: 9ea0 043d cd9f bb3b 9a6e 0cbe 3f0b 62bd
000000f0: 5932 ba3c ff70 783d 7cef 85ba 8aff 95bb
00000100: 2dda 3c3d 65c0 7d3c 3cca 12bd fc20 9d3b
00000110: ae65 783d c316 9bbc 148e f5bd d5ee c13d
00000120: 0b19 6dbd 5f22 cfbc b1ea 113c bf33 36bd
00000130: b322 30bc ac2d b0bd a87c c13d 7a0e adbd
00000140: 822b 473d 5a8f 2c3d 7bb8 183d d7ae 1cbd
00000150: 9710 9ebd 3648 693c 41ca 08be 319f b93d
00000160: d73e 483d 1dc9 09be 29aa 2ebd 6021 17b9
00000170: 0b79 a0bb 5031 9cbd 057b 303d b52a b3bc
00000180: 9812 4fbd 7279 adbd 2d49 6fbd 1f21 3fbd
00000190: 31f3 483d c6b9 8aba 7cd4 e7b9 665b 5b3c
000001a0: 3319 b93c fe6d 1ebd c253 68bd c95f 453d
000001b0: 2b86 6c3d d683 bb3c f58c 2bbd cb01 1e3d
000001c0: 0447 9a3d c635 913d 3f99 eb3d b5c0 993d
000001d0: fa0e 9a3d ab7b 153d 8593 043e 6480 f33d
000001e0: ba43 05be 9580 debb 4610 cb3c f9e1 ec3b
000001f0: 44ad afbc 737d a2bd d33d 2c3c edce eebd
00000200: a818 803b 7ac9 1dbd 90cd 033b 2070 19bc
00000210: 87e4 a7bd 0b8b 6c3d 6257 52bd 528a 1fbc
00000220: 28de 8dbd d189 1a3d 9b0d 51bd ce8d be3b
00000230: 7a43 e83a 9672 11bd 831d 30bd e75a 80bd
00000240: fbe5 1bbd b438 e3bc 71d2 90bd bd03 2d3e
00000250: 6f7c 46bd eb89 1fbc d7c5 ad3d 869f 31bb
00000260: d5b9 8a3d 3d62 193d 6a46 eabd f213 113d
00000270: 19df 343d e0f3 27bd 9a15 a7bc 0051 6bbd
00000280: a3ee 0c3c 394a 04bd 97b0 793c b184 873d
00000290: 16f4 563d 98b8 0dbc 8ab8 273c 142f 2cbe
000002a0: 9f49 11bd 05ef ccbd 3424 dcbd 001f 223c
000002b0: 75ca 733d fa3e 6a3b 04f1 b8bd 94ef 87bc
000002c0: c41d 983d 9183 d3bd 76c6 ba3c 2d7a 5d3d
000002d0: aa1f 4e3d 9472 18bc e01a 343b 837d 0cbc
000002e0: 9ff9 debd 580d 13bc c250 31bc eca5 9e3d
000002f0: 5616 113d 37cf e63c e4ed e8bc b4d5 263d
00000300: 0d3c c8bc 5b3d 323d 2ff3 1abd 9223 683c
00000310: b99d 30bd a461 85bd afed 0bbd 6511 23bd
00000320: 56d8 503c ece7 1c3d 009c 093e e133 2d3b
00000330: 766d 213d dd67 b5bd 097d 0eba 8420 f9bc
00000340: df41 fcba 7103 a23c 1b4d 523d 05b4 863b
00000350: 644d 7a3d 3478 2dbc ced4 003e 63cb fabc
00000360: 92ea 30bc 1224 f3bc 0f02 ea3c 1c7d 88bd
00000370: 43a1 d5bc 4276 27bc 5c52 253d dd93 21bd
00000380: 94d3 43bd f091 aebb e093 01b7 91d6 51bd
00000390: 8714 a5bd 89e5 4fbd fcf3 38bc 69c4 27bd
000003a0: 8385 d53c d5fa 2bbd 299d 473d 38e3 aabc
000003b0: 7afe 53be 2097 de3c 6983 c7bd b565 053d
000003c0: 26c9 86bd cb12 09bd e772 2dbd 1470 99bd
000003d0: f961 c3bc 0275 3d3d b29c c7bb 26be c53d
000003e0: 60b2 4abc bdc2 1e3d 5dac 2fbd 616e 14bd
000003f0: 2acc d6bc a3ad 32bd bc6d 96bb f16b 5bbd

bias f4 [10]
-0.040264536 -0.037669014 0.003797629 -0.0050745844 0.00812898 -0.035668064 0.038798157 0.05602
0.0041126586 -0.029081503
00000000: 6dec 24bd d34a 1abd a4e1 783b b348 a6bb
00000010: 6a2f 053c ad18 12bd d1ea 1e3d 3a75 653d
00000020: 7bc3 863b 553c eebc
